models/v2/hey_glados.tflite (tflite, 206748 bytes, 9 tensors)

Const_1 f4 [32]
0	0x3c043bd8	0.0080709085
1	0xbb28bc5f	-0.0025747044
2	0x3cabcf9c	0.02097302
3	0xbc33f2c5	-0.010983174
4	0x3c8a78ed	0.016903365
5	0x3cac3b14	0.021024264
6	0x3bfc4898	0.0076990835
7	0xbcc9db2b	-0.02464064
8	0x3c180ef7	0.009280912
9	0x3c9d3a5b	0.019192865
10	0xbc49d1bd	-0.012318072
11	0xbcabcff6	-0.020973187
12	0x3c6ff58d	0.014645946
13	0x3beecc8d	0.007287568
14	0x3c96f6bc	0.018428199
15	0xbb03f82f	-0.0020136943
16	0x3ca69c4e	0.020338204
17	0x39fb1e7d	0.00047897166
18	0x3c9f5331	0.019448848
19	0xba9b1af6	-0.0011833597
20	0xbb3ddb41	-0.0028969797
21	0xbc4e8bb3	-0.012606549
22	0x3c554bb3	0.013018536
23	0x3c882d1c	0.016623072
24	0xbb6a2614	-0.0035728263
25	0x3ad25cd1	0.001604939
26	0x3c43462d	0.011918587
27	0x3c1b4051	0.009475783
28	0xbcaf4a5c	-0.021397762
29	0xbc0ce19b	-0.00859871
30	0xbb5598b0	-0.003259223
31	0xbb918bd1	-0.0044417162

Const_2 f4 [32]
0	0x3f7f2552	0.9966632
1	0x3f7eb771	0.9949866
2	0x3f7f8ee8	0.9982743
3	0x3f8d6353	1.1045936
4	0x3f7c0e52	0.9845935
5	0x3f79f536	0.9763979
6	0x3f774745	0.96593124
7	0x3f7cb620	0.987154
8	0x3f7e95a9	0.99447113
9	0x3f7e7d80	0.9941025
10	0x3f7f7fef	0.99804586
11	0x3f7ed5c9	0.9954496
12	0x3f7f127c	0.9963758
13	0x3f7dbd22	0.9911672
14	0x3f805f91	1.0029165
15	0x3f7957dd	0.97399694
16	0x3f78f546	0.9724926
17	0x3f7fa03b	0.9985387
18	0x3f7b1428	0.9807763
19	0x3f7efdc0	0.9960594
20	0x3f7fbb63	0.99895304
21	0x3f7f8c0a	0.9982306
22	0x3f8024d8	1.0011244
23	0x3f82609c	1.0185733
24	0x3f82b86f	1.0212535
25	0x3f84d18c	1.0376449
26	0x3f7d40d2	0.9892703
27	0x3f7da0ea	0.9907366
28	0x3f813c84	1.0096593
29	0x3f748776	0.95519197
30	0x3f7f0bd9	0.99627453
31	0x3f803eb8	1.001914

Const_3 f4 [32]
0	0xbbf784a1	-0.0075536524
1	0x3c6ee063	0.014579865
2	0xbb3d3513	-0.0028870746
3	0x3c75ddb2	0.01500647
4	0x3c0ddef3	0.008659112
5	0xbb6dd035	-0.003628743
6	0xbbb28643	-0.005448134
7	0xbbf7e593	-0.007565209
8	0xbb912b72	-0.004430228
9	0xbb5361a5	-0.0032254246
10	0xbbc3072b	-0.005951782
11	0xbbe8bb53	-0.007102409
12	0xbba1f1fb	-0.0049421764
13	0xbbe83f30	-0.0070876107
14	0x3b89e113	0.004207739
15	0x3c86d2c6	0.016457926
16	0x3bef8858	0.0073099546
17	0xbbc7ea1c	-0.006100906
18	0xbbc5907a	-0.006029186
19	0x39a1f315	0.00030889423
20	0xbba73f19	-0.0051039574
21	0xbbd15c35	-0.0063891658
22	0x3c29a656	0.010354599
23	0x3cddfaf1	0.027097197
24	0x3b1344fa	0.0022471533
25	0x3d3e6965	0.04648723
26	0xbcdeab2b	-0.027181229
27	0xbc614446	-0.013749188
28	0x3c3c4303	0.011490586
29	0x3d0ed84c	0.034874246
30	0xbbfe9c3a	-0.0077700885
31	0xbc0efd7d	-0.0087274285

Const_5 f4 [32]
0	0x3d81d97a	0.063403085
1	0x3d5d8a6e	0.054087095
2	0xbdabd023	-0.08389308
3	0xbe0bcc93	-0.13652258
4	0xbe0b5918	-0.13608205
5	0x3d835d8f	0.06414329
6	0x3e1b5618	0.15169561
7	0x3e3d4547	0.18483458
8	0xbe28ee80	-0.1649723
9	0xbe077f17	-0.13232075
10	0x3d59eadb	0.05320249
11	0xbc108615	-0.00882103
12	0x3d8531f9	0.06503672
13	0xbe2b606e	-0.16736004
14	0x3d86ccc4	0.06582025
15	0x3d5bc2a5	0.053652424
16	0xbc5d72e3	-0.013516161
17	0x3e286dca	0.16448131
18	0xbdeb3e08	-0.11486441
19	0x3d55251a	0.052037336
20	0xbd9d4fae	-0.07681213
21	0xbd80ed03	-0.062952064
22	0x3c782b31	0.015147016
23	0xbd8dd426	-0.0692523
24	0x3d49cef8	0.049269646
25	0xbc272ea9	-0.010203996
26	0x3d84e25f	0.06488489
27	0x3c4c979f	0.012487321
28	0x3c3f42c1	0.01167363
29	0x3d37fec4	0.044920698
30	0xbc80f08f	-0.015739707
31	0x3df9510c	0.121736616

Const_6 f4 [32]
0	0x3f86d328	1.053319
1	0x3f9eff2a	1.242162
2	0x3f8253f2	1.0181868
3	0x3f73853e	0.95125186
4	0x3f854dee	1.0414407
5	0x3f81d712	1.0143759
6	0x3f8987c3	1.0744556
7	0x3f8760d2	1.0576422
8	0x3f9b8fd3	1.2153267
9	0x3f9a63d5	1.2061716
10	0x3fac0122	1.3437846
11	0x3f7ca884	0.98694634
12	0x3f9ad1fb	1.2095331
13	0x3f8a5a09	1.0808727
14	0x3f9dcc25	1.2327925
15	0x3f9b1e81	1.2118684
16	0x3f7c51e5	0.9856246
17	0x3f803d47	1.00187
18	0x3f71c2ca	0.9443785
19	0x3fa21a07	1.2664193
20	0x3f7caf3a	0.98704875
21	0x3fb11410	1.3834248
22	0x3f9dd904	1.2331853
23	0x3f8336f0	1.025114
24	0x3fa0dfec	1.2568336
25	0x3f920eaa	1.1410725
26	0x3f817a3a	1.0115426
27	0x3f70f7df	0.9412822
28	0x3f87b090	1.0600758
29	0x3f7ed585	0.99544555
30	0x3f808a16	1.004214
31	0x3f8022ad	1.0010582

Const_7 f4 [32]
0	0x3cf4def0	0.029891461
1	0x3e69a21c	0.22815746
2	0x3c1f1a38	0.009710841
3	0xbd5bac2b	-0.05363099
4	0x3d25a6fa	0.040442444
5	0x3c60e68d	0.013726843
6	0x3d8e7219	0.06955356
7	0x3d545f45	0.05184867
8	0x3e66459d	0.22487493
9	0x3e652a42	0.22379401
10	0x3e8bfe1c	0.27342308
11	0xbcc8c50b	-0.02450802
12	0x3e6757c4	0.22592074
13	0x3d2fec95	0.04295023
14	0x3e6d147b	0.23152344
15	0x3e6ae89d	0.22940297
16	0x3d1391b1	0.036027614
17	0x3ade6460	0.001696717
18	0xbcef6ef1	-0.029227706
19	0x3e761b6c	0.24033898
20	0xbc9a7b76	-0.018857699
21	0x3e9361b4	0.2878548
22	0x3e76660f	0.2406237
23	0x3d1a676e	0.037696294
24	0x3e73eb3f	0.23820208
25	0x3d908b76	0.0705785
26	0x3c95de42	0.018294457
27	0xbd07ae1a	-0.03312502
28	0x3d1098d6	0.035302006
29	0xbc438ec1	-0.011935891
30	0x3c06194b	0.008184741
31	0xba2ee0b3	-0.0006671056

MatMul f4 [32, 1536]
0	0x3aa40eec	0.0012516654
1	0xbbdaa7a4	-0.0066728164
2	0xbadb723c	-0.0016742419
3	0xbc18574b	-0.009298156
4	0x3ce8686b	0.028370103
5	0xbccc5723	-0.024943894
6	0x3bd713b3	0.0065636276
7	0x3c98d3ab	0.018655619
8	0xbbcd918f	-0.0062734555
9	0x3bdeae1e	0.0067956587
10	0xbcc7b6bb	-0.024379125
11	0x3c777b37	0.01510506
12	0xbb6c3cf9	-0.0036047085
13	0xbc03266a	-0.008004764
14	0xbb00eb52	-0.0019671512
15	0xbd010a28	-0.031503826
16	0xbc9b6805	-0.018970499
17	0x3c4f9a49	0.012671062
18	0xbcd26208	-0.02568151
19	0x3c47d7f8	0.012197487
20	0xbb14a2ab	-0.0022679965
21	0x3a0e10c2	0.0005419367
22	0x3b50c76f	0.0031857153
23	0xba21e359	-0.000617554
24	0xbb9e819f	-0.0048372294
25	0x3c6b1130	0.01434736
26	0x3cda5ef4	0.026656605
27	0xbc5432cf	-0.012951567
28	0xbba3f592	-0.0050036395
29	0x39879b75	0.0002586503
30	0xbc1007fd	-0.008790967
31	0x3c2913c3	0.010319653
32	0xbbfb7137	-0.0076734084
33	0xb9c25c02	-0.00037071115
34	0xbcb29c2e	-0.021802988
35	0xbb77a093	-0.0037784919
36	0x3bfbf022	0.007688538
37	0xbc924083	-0.017853027
38	0x3ba3ac7b	0.0049949265
39	0x3c42af2a	0.011882583
40	0xbc9ddf3f	-0.019271491
41	0x3c53f877	0.012937657
42	0x3bd021f5	0.0063517042
43	0xbbbcfdf6	-0.005767579
44	0xbcb2ab68	-0.021810248
45	0x3cae5ef4	0.021285512
46	0xbcb999d0	-0.022656351
47	0x3c8b5ab6	0.017011028
48	0x3bdd117b	0.0067464686
49	0x3d229796	0.039695345
50	0xbbe84bc4	-0.00708911
51	0xbc40405f	-0.011734097
52	0x3c1d0882	0.009584548
53	0x3c0542bf	0.008133589
54	0xbc6ffd00	-0.014647722
55	0x3aad1185	0.0013204074
56	0xbb8dd733	-0.0043286323
57	0x3b613f2a	0.0034369924
58	0xbc9efc76	-0.019407492
59	0xbb220401	-0.0024721625
60	0xbc7376fc	-0.014859911
61	0xbc16c04c	-0.009201121
62	0xbc8d907c	-0.01728081
63	0x3bf0debd	0.007350771
64	0xbc4c17ff	-0.012456893
65	0xbcb50357	-0.02209632
66	0x3c1a1d76	0.009406438
67	0xbcc43d5b	-0.023955038
68	0x3c1f4961	0.009722085
69	0x3cb4d0c8	0.02207221
70	0x3bae9d38	0.0053288005
71	0x3b4a8d38	0.0030906927
72	0x3c198d8b	0.009372125
73	0xbb458d3b	-0.0030143994
74	0xbcaf0672	-0.021365378
75	0xbb154b2c	-0.0022780402
76	0x3aa0515e	0.001223128
77	0xbbbfe651	-0.0058563133
78	0xbc1a7411	-0.009427086
79	0xb9c8d7ff	-0.00038307902
80	0xbc0b0398	-0.008484744
81	0x3cb30690	0.021853715
82	0xb96bb04e	-0.00022477025
83	0xbc278251	-0.010223941
84	0x3c294226	0.010330712
85	0xbb979fb3	-0.004627192
86	0xbb31c0f1	-0.0027123059
87	0x3c1e05df	0.009644954
88	0xbb773ce0	-0.0037725493
89	0xbcc2d746	-0.023784291
90	0xbc21bf5d	-0.009872285
91	0x3c4ffe6f	0.012694939
92	0x3c71caef	0.014757856
93	0xbc9ff751	-0.01952711
94	0xbaa025c3	-0.0012218285
95	0xbb599165	-0.0033198234
96	0x3ca77a57	0.020444078
97	0x3cce7094	0.025200166
98	0x3c80594b	0.015667578
99	0xbc3b2edc	-0.011424746
100	0xbc78b5a4	-0.015180025
101	0xbb590b0a	-0.0033118152
102	0x3a53cf7e	0.000807993
103	0xbc26b280	-0.010174394
104	0xbb37f85d	-0.002807162
105	0x3c5ff1fc	0.013668533
106	0x3ba4f98f	0.0050346325
107	0x3c8f89a2	0.017521683
108	0xbcf4b114	-0.029869594
109	0x3cb0e4e8	0.021593526
110	0xbc2df6b4	-0.010617901
111	0xbc3096be	-0.010778127
112	0xbc3120d2	-0.010811048
113	0x3c9390f6	0.018013459
114	0x3c9dfc5d	0.019285375
115	0xbb6c8d8d	-0.0036095113
116	0xbc8ca4ed	-0.017168486
117	0x3cb0a236	0.021561723
118	0x3c95bcd1	0.018278511
119	0x3c15db36	0.009146502
120	0x3b5ae1be	0.0033398713
121	0xbcc5368a	-0.024073858
122	0x3c0cbd71	0.008590088
123	0x3b8a5ae9	0.004222263
124	0xbbb090b9	-0.005388346
125	0xbcf3a8af	-0.02974352
126	0xbc9345eb	-0.017977675
127	0xbcbfb96f	-0.023403851
128	0x3bb63461	0.0055604433
129	0x3b95f40f	0.004576213
130	0x3c7e2cc7	0.015513605
131	0x3c5d2286	0.013497001
132	0x3c50b0af	0.012737437
133	0x3b8b183f	0.0042448337
134	0x3cc4cd89	0.024023788
135	0xbb567b3a	-0.0032727257
136	0xbc4e0998	-0.0125755295
137	0xbbb7432c	-0.0055927243
138	0x3b13adaa	0.0022533932
139	0x3a0581a6	0.00050928665
140	0xbb4562e3	-0.0030118756
141	0xbb69533d	-0.0035602592
142	0xbbfeff6c	-0.0077819135
143	0xbc039702	-0.008031609
144	0x3c9a9182	0.018868212
145	0x3c834b60	0.016027153
146	0xbc926cc2	-0.017874125
147	0xbc89526a	-0.01676293
148	0xb912efd5	-0.0001401299
149	0x3c94573a	0.018108
150	0x3ac6a8fe	0.0015156565
151	0xbc6713ca	-0.014103839
152	0xbc162f6d	-0.009166581
153	0x3c994537	0.018709762
154	0x3cc6a40b	0.024248144
155	0xbc5a2aac	-0.013315838
156	0x3c340fe2	0.010990115
157	0xbcf66753	-0.030078566
158	0x3caf89e7	0.021428062
159	0xbbc1a251	-0.005909242
160	0x3c9f6920	0.019459307
161	0x3c8c45ec	0.017123185
162	0x3cc58516	0.024111312
163	0x3ca474ae	0.020075168
164	0x3c1a1f9a	0.009406948
165	0x3cc552d9	0.024087356
166	0x3c5c117d	0.013431904
167	0xbc7fbbc0	-0.015608728
168	0x3cc5f425	0.024164269
169	0x3be56dc2	0.0070016095
170	0x3bc5091f	0.00601305
171	0xbc2fee9e	-0.010738043
172	0x3d0ce28c	0.03439574
173	0xbba17122	-0.0049268166
174	0xbc07f03c	-0.008297022
175	0xbbd95449	-0.006632362
176	0x3c162432	0.009163903
177	0x3ca3f9a5	0.0200165
178	0xbca00e5e	-0.0195381
179	0x3c151bf5	0.009100904
180	0x3b996874	0.0046816412
181	0x3c176075	0.009239306
182	0xbc96753f	-0.018366454
183	0x3c38b01f	0.011272459
184	0xbbcf3649	-0.00632361
185	0x3c61f1a2	0.01379052
186	0x3c67c5ee	0.014146311
187	0xbb0d1f23	-0.0021533452
188	0xbbf210ec	-0.007387271
189	0xbc35cbbe	-0.011095939
190	0xbcad308c	-0.021141313
191	0xbc723612	-0.014783399
192	0x3c169fed	0.009193403
193	0x3caf8873	0.021427369
194	0xbc962f1a	-0.018333007
195	0xbd14d4e1	-0.03633583
196	0x3c7b6c71	0.015345679
197	0xbcca35c7	-0.024683846
198	0x3bcaec84	0.0061927456
199	0x3ca32b75	0.019918183
200	0x3beb69f6	0.0071842624
201	0x3c5cb667	0.0134712225
202	0x3cdc7aed	0.026914084
203	0xbc6b89b5	-0.014376094
204	0x3c6141c4	0.01374859
205	0x3c683858	0.01417359
206	0xbc38a729	-0.011270323
207	0x3cf1a7be	0.029498931
208	0xbc3cc06d	-0.011520487
209	0x3c8dec3b	0.017324558
210	0xbc30751c	-0.010770109
211	0x3c6eda5d	0.014578429
212	0x3cb64d9e	0.022253808
213	0x3c345a77	0.011007897
214	0x3bd7db6c	0.0065874364
215	0x3c2fe419	0.010735535
216	0xbc828bb8	-0.015935764
217	0x3c8a6fbb	0.01689898
218	0x3cacbede	0.021087106
219	0x39b69fba	0.0003483275
220	0x3c45b56c	0.01206718
221	0xbba2dc1e	-0.0049700877
222	0xbc56abc3	-0.013102475
223	0xba80c91e	-0.0009825563
224	0xbcb9a544	-0.022661813
225	0x3b9f1e50	0.0048559085
226	0xbc52e6a3	-0.012872371
227	0x3cabe595	0.020983497
228	0x3c9d186a	0.01917668
229	0xbcb4d301	-0.02207327
230	0x3d0aaf1b	0.0338584
231	0xbc8bc947	-0.01706375
232	0x3ad7dfca	0.0016469893
233	0xbc212866	-0.009836292
234	0xbbfc8520	-0.0077062994
235	0xbc2a622b	-0.010399382
236	0x3c90b4ab	0.017664274
237	0x3c8f0ddb	0.017462661
238	0x3ca354da	0.019937921
239	0x3cae3bba	0.021268714
240	0xbc44e481	-0.01201737
241	0x3c502291	0.012703554
242	0x3cc5558e	0.024088647
243	0x3ca53683	0.020167595
244	0xbc1a1add	-0.009405819
245	0x3c6b4aa0	0.014361054
246	0x3c8c2fdf	0.01711267
247	0xbc85bd30	-0.016325563
248	0x3c07e8c7	0.008295245
249	0xbcbd8855	-0.023136297
250	0x3888445b	6.4977175e-05
251	0x3ccbb305	0.024865637
252	0xbce2f91e	-0.027706679
253	0xbcb6a56e	-0.02229568
254	0xbbf4f784	-0.007475795
255	0xbc90f826	-0.017696451

MatMul_1 f4 [32, 32]
0	0x3e2204f1	0.15822197
1	0x3de3f3c8	0.11130482
2	0xbe2268b3	-0.15860252
3	0xbdc8f720	-0.0981276
4	0x3e13be34	0.14428025
5	0xbde31261	-0.1108749
6	0x3e16687e	0.14688298
7	0xbd1f479c	-0.03888665
8	0x3c9e40f3	0.01931808
9	0x3e105b77	0.14097391
10	0x3c43d4ba	0.011952573
11	0x3a757416	0.00093633065
12	0xbcdc9af0	-0.026929349
13	0x3d52a180	0.05142355
14	0x3dcfa786	0.101393744
15	0xbe18e47b	-0.14930908
16	0xbdaec69e	-0.08533977
17	0xbbee29d2	-0.007268169
18	0xbd6a4c61	-0.057201747
19	0x3d9cde17	0.07659548
20	0x3e132777	0.14370523
21	0xbe2070d0	-0.15668035
22	0x3cc2826b	0.023743829
23	0xbd53e9bd	-0.051736582
24	0xbcb1f079	-0.021721112
25	0x3e24d071	0.16095139
26	0xbd782258	-0.060579628
27	0x3ddd98cd	0.1082016
28	0xbe0508b1	-0.12991597
29	0xbc051267	-0.008122063
30	0x3e2069a8	0.15665305
31	0x3d7f8151	0.062379185
32	0xbdd0fc75	-0.10204402
33	0x3d71c1c0	0.059022665
34	0x3c5ea03a	0.013588006
35	0x3d9aae11	0.07552732
36	0x3c1a9835	0.009435703
37	0x3c21ab0f	0.009867444
38	0x3996485c	0.0002866414
39	0x3dea6bf4	0.11446372
40	0xbd3e9106	-0.046525024
41	0xbdcd61a2	-0.100283876
42	0xbd611463	-0.054951083
43	0xbdbeaf51	-0.09310783
44	0x3e28b34d	0.16474648
45	0x3dfdd2b1	0.12393702
46	0x3d68b53e	0.05681347
47	0xbd9deffb	-0.07711788
48	0xbe0d80f7	-0.13818727
49	0x3ce26eeb	0.02764078
50	0xbce27105	-0.027641783
51	0xbdfbf7ae	-0.123031005
52	0x3dbe7bb9	0.09300942
53	0x3d94811d	0.07251189
54	0x3b89fc3d	0.0042109773
55	0x3e198758	0.14993036
56	0x3df3ed2b	0.119104706
57	0x3d17be3c	0.037046656
58	0xbe19b66f	-0.15010999
59	0x3d53a82c	0.051674053
60	0xbe155c4c	-0.1458599
61	0xbd913869	-0.070908375
62	0x3d6ba191	0.05752713
63	0x3e14ad45	0.14519222
64	0xbe18504b	-0.1487438
65	0x3e00c8c8	0.12576592
66	0x3d350bc2	0.044200666
67	0x3d2b4c41	0.04182077
68	0x3baa8e0a	0.0052049207
69	0x3d984d73	0.07436647
70	0x3e51c2e9	0.20484509
71	0x3dec0cef	0.115259044
72	0xbd8769f7	-0.06612008
73	0xbdc945df	-0.0982778
74	0xbe2b4942	-0.16727164
75	0x3dc180e0	0.09448409
76	0xbd4aad28	-0.04948154
77	0x3e31eb50	0.17374921
78	0x3d3d2f59	0.046187732
79	0x3e1be6c3	0.15224747
80	0xbb9891f3	-0.0046560704
81	0x3d81350e	0.063089475
82	0xbe3bb5ed	-0.18331118
83	0x3d3502b6	0.04419204
84	0xbd9a21d5	-0.07525984
85	0x3c830d49	0.015997546
86	0xbe0b77c6	-0.13619909
87	0xbdfbd31a	-0.12296124
88	0xbd53032f	-0.051516708
89	0xbdcf46e0	-0.1012094
90	0xbe0eb283	-0.13935284
91	0xbdd64335	-0.104620375
92	0x3e32aac7	0.17447959
93	0xbd933541	-0.07187892
94	0x3dd75e55	0.10516039
95	0xbe07cf07	-0.13262568
96	0xbd2f7ff6	-0.042846642
97	0xbc219e61	-0.009864421
98	0xbe00cc75	-0.12577994
99	0xbe03fdbf	-0.12889765
100	0x3c83e1f3	0.016098952
101	0xbc7effc9	-0.015563914
102	0xbe21b1be	-0.1579046
103	0x3d096cc1	0.03355098
104	0xbe2c725d	-0.16840501
105	0xbdc1ed9c	-0.094691485
106	0x3e222f12	0.15838268
107	0xbda65762	-0.08122136
108	0x3e2fca29	0.17166962
109	0x3e0790f0	0.13238883
110	0xbe1690db	-0.14703695
111	0xbc98d03a	-0.018653978
112	0x3dc06f04	0.093961746
113	0xbe1073e4	-0.14106709
114	0xbce569a0	-0.028004467
115	0x3e1c6efe	0.15276715
116	0xbe18cef1	-0.14922692
117	0x3d37d87a	0.044884183
118	0xbc4eeb3d	-0.012629327
119	0xbd92a1ca	-0.07159765
120	0x3dfb9640	0.12284517
121	0x3db54116	0.08850305
122	0xbe037311	-0.12836863
123	0xbe0813ab	-0.13288753
124	0x3d7f6557	0.062352505
125	0x3c80e890	0.015735894
126	0xbdb5e278	-0.08881086
127	0x3d0bad13	0.034100603
128	0x3df43ed2	0.119260445
129	0x3cba06fd	0.02270841
130	0xbca7acfd	-0.02046823
131	0x3d276b0b	0.04087357
132	0x3d3da0c8	0.04629591
133	0xbd9215ef	-0.0713309
134	0x3cfcfb04	0.030881412
135	0xbe2f20ab	-0.17102306
136	0xbccae70c	-0.024768375
137	0x3dbfef72	0.093718424
138	0xbce24d31	-0.027624698
139	0xbd968e66	-0.07351379
140	0xbdc92ef9	-0.098234124
141	0xbdcc66e8	-0.09980565
142	0x3e2d6df9	0.16936482
143	0xbdc2a6f8	-0.09504503
144	0x3cac64ca	0.021044154
145	0x3e279230	0.1636436
146	0xbdf37548	-0.11887604
147	0x3e2217a2	0.15829328
148	0xbd167662	-0.036733992
149	0xbe1c80da	-0.15283528
150	0x3b9db89c	0.004813267
151	0xbe1e3350	-0.15449262
152	0xbe13a2ba	-0.14417544
153	0x3e41223c	0.18860716
154	0x3dce0db3	0.10061207
155	0x3dec9783	0.11552336
156	0xbd8b2058	-0.067932785
157	0x3e1f9b65	0.15586622
158	0x3deaf038	0.11471599
159	0x3e2429c6	0.1603156
160	0x3e2493d4	0.16072017
161	0xbde40f73	-0.11135759
162	0x3d3dbfc1	0.04632545
163	0xbdd2950f	-0.10282337
164	0x3db7ffb0	0.089843154
165	0x3dfc6a0c	0.12324914
166	0x3dd5d106	0.10440259
167	0x3c716990	0.014734641
168	0xbd807773	-0.06272783
169	0x3dbfd538	0.0936684
170	0x3e082bce	0.1329796
171	0xbd2485b7	-0.040166583
172	0xbdd43e67	-0.10363465
173	0x3e32ce7d	0.17461582
174	0x3e27051f	0.16310547
175	0x3e263f45	0.16235073
176	0x3d5ed2f3	0.054400396
177	0x3b4c72b4	0.0031196298
178	0xbdf59d54	-0.119928986
179	0xbc0d45bf	-0.008622586
180	0xbc9ce43e	-0.019151803
181	0xbdcc7f4a	-0.09985216
182	0xbe1b1c6f	-0.15147565
183	0xbda45c3a	-0.08025403
184	0x3d120a46	0.03565433
185	0xbcf0fccc	-0.029417418
186	0x3c8a2b36	0.016866308
187	0x3e142d4b	0.14470403
188	0xbd37e1d4	-0.0448931
189	0xbdd2af84	-0.10287383
190	0x3d4ffa94	0.05077608
191	0x3ccc7eab	0.024962744
192	0xbe2665c5	-0.1624976
193	0x3c810867	0.015751077
194	0x3dca381c	0.09873983
195	0xbe3601a1	-0.17774059
196	0x3d57a49b	0.052647214
197	0xbd2351c2	-0.039872892
198	0xbdec1531	-0.115274794
199	0x3d8fc5a3	0.07020118
200	0xbdd229d8	-0.10261887
201	0x3e3132ae	0.17304489
202	0xbe01694e	-0.12637827
203	0x3c0f36b6	0.008741071
204	0x3e0a7dd0	0.13524556
205	0xbce11fc5	-0.02748097
206	0x3df2ce0c	0.118557066
207	0x3dfa41d2	0.122195855
208	0xbe127055	-0.14300664
209	0xbdfc33ca	-0.123145655
210	0xbe113071	-0.14178635
211	0x3e2448e4	0.1604343
212	0xbe077a86	-0.13230333
213	0xbe0e6367	-0.13905106
214	0x3e1fef4c	0.15618628
215	0x3d1080f7	0.03527924
216	0xbe0b4613	-0.1360095
217	0xbda6ca76	-0.08144085
218	0xbd699cf5	-0.05703445
219	0xbe1019c0	-0.14072323
220	0x3d8377b0	0.06419313
221	0x3dff7a61	0.12474514
222	0xbe23ab51	-0.15983321
223	0xbd9c9dac	-0.07647261
224	0xbb8e6486	-0.0043454794
225	0x3d623190	0.055223048
226	0x3ce54c80	0.02799058
227	0xbdfc13b6	-0.12308447
228	0xbd78b6b7	-0.060721125
229	0xbe13cb28	-0.14432967
230	0xbe2e21ef	-0.17005132
231	0x3da377a8	0.07981807
232	0x3e18ad6c	0.14909905
233	0x3c1d6411	0.009606377
234	0x3da401b5	0.08008138
235	0x3e0c9011	0.13726832
236	0x3dc49e18	0.096004665
237	0x3dfe38e9	0.124131985
238	0xbe25ea48	-0.16202652
239	0x3dfe0698	0.124036014
240	0xb88a5017	-6.595271e-05
241	0x3d9ee0a5	0.07757691
242	0x3e2dac22	0.16960195
243	0x3d0564ef	0.03256696
244	0xbce7e8d4	-0.028309263
245	0xbe25e000	-0.1619873
246	0xbe0edbe6	-0.13951072
247	0x3dae3899	0.08506889
248	0xbe18399c	-0.14865726
249	0x3dd56849	0.104202814
250	0x3d8133e0	0.063087225
251	0xbd012054	-0.03152497
252	0x3daf8179	0.08569617
253	0xbd60341c	-0.054737195
254	0x3d4e9469	0.050434504
255	0x3d07292e	0.032998256

MatMul_2 f4 [1, 32]
0	0x3e46a45e	0.19398639
1	0xbeb94b41	-0.36190227
2	0x3e0558d0	0.1302216
3	0xbcb3f8c0	-0.0219692
4	0x3e333c31	0.1750343
5	0x3d7c0429	0.061527405
6	0x3d321fac	0.043487236
7	0x3d135d52	0.03597767
8	0xbeae4476	-0.34036607
9	0xbeace71a	-0.33770066
10	0xbeab9a98	-0.33516383
11	0x3cb279f5	0.02178667
12	0xbea14919	-0.31501082
13	0x3d912aa2	0.0708821
14	0xbeae2be4	-0.3401786
15	0xbe99d9e3	-0.30049047
16	0xbdc87fe6	-0.0979002
17	0xbc22b9ba	-0.009931976
18	0x3c91dbd9	0.017805027
19	0xbec76c3b	-0.3894976
20	0x3ba0e457	0.0049100327
21	0xbeae575e	-0.3405103
22	0xbe989ef5	-0.29808775
23	0x3e39d173	0.18146305
24	0xbeab3939	-0.33442095
25	0x3e3d9b85	0.18516357
26	0xbc88b9c7	-0.016690148
27	0xbb7e9b8e	-0.0038850042
28	0x3e4060fb	0.18786995
29	0x3d86bc5a	0.06578894
30	0x3db5de37	0.08880275
31	0xbd9aa147	-0.075502925
