models/v2/hey_glados.tflite (tflite, 206748 bytes, 9 tensors)

Const_1 f4 [32]
00000000: ece1 c7bc ca83 c33c 2a80 a6bc 1582 6d3b
00000010: 7395 5e3c f325 363c f6de 93bc 1c05 bebb
00000020: 6196 313c c8e2 30bc 440a 503c c1a8 52bc
00000030: d9bf 9abb 35eb 0fbc 797a 9cbc 368d 6dbc
00000040: 9a8c 2ebc e7ef be38 8cea f03c a060 dcbb
00000050: fe46 30bb 1b60 e3bc ecfd 99bc 7129 9f3b
00000060: e897 9ebc 989d a83c c41c 0c3c 4a87 5d3c
00000070: c683 00bc 4e0b af3b 4b27 003b caea 86bc
-0.02439972 0.023866553 -0.020324785 0.0036240865 0.013585436 0.011117446 -0.018050652 -0.005798949
0.010839076 -0.010796256 0.01269776 -0.012857617 -0.004722577 -0.008784105 -0.019101368 -0.014498999
-0.010653639 9.104591e-05 0.029408716 -0.006725386 -0.0026897783 -0.027755788 -0.018797837 0.004857235
-0.019359544 0.020582959 0.00855178 0.013521025 -0.007843917 0.005341924 0.001955467 -0.016469378

Const_2 f4 [32]
00000000: f90d 7b3f 09ac 773f 7adb 813f 03a6 7c3f
00000010: 9eec 7b3f 49f0 803f 3a93 7d3f 093c 773f
00000020: 9dac 833f e3a3 7f3f 9326 763f 11be 823f
00000030: 396f 833f 08b3 7b3f 97b2 7e3f 17cf 813f
00000040: 4b0b 7b3f 6d4f 7d3f 44da 823f 30f7 813f
00000050: ebc9 843f 9cd8 823f 03bd 7d3f d98d 7b3f
00000060: fc9f 7b3f ceee 7d3f 3687 813f af66 813f
00000070: 0e48 793f 5ed0 7d3f a694 823f 0bd6 7d3f
0.98068196 0.9674688 1.0145104 0.98690814 0.98407924 1.0073329 0.99052775 0.9657598
1.0287052 0.99859446 0.9615261 1.0214254 1.0268317 0.98320055 0.99491256 1.0141324
0.98064107 0.9894932 1.0222859 1.0153561 1.037412 1.0222354 0.99116534 0.9826332
0.9829099 0.9919251 1.0119388 1.0109462 0.9737557 0.9914607 1.0201614 0.9915473

Const_3 f4 [32]
00000000: 9340 aabc 795f c33c bbdd 07bc c106 e1bb
00000010: be86 8cbc 4854 f73c e557 8bbc 9329 3e3b
00000020: e21a 1abb bc6b b83a 3486 28bc 1e0d 1c3b
00000030: 435f 8d3c e4b9 cd3c 9375 dfbc d2fd 923b
00000040: 49bd 8ebc daf5 4bbc 68e2 d6bb 0372 a53b
00000050: 67e8 0f3d a400 a3bc 7c28 15bc a2d6 5b3b
00000060: cd27 47bc e63a 28ba d50a 2e3c 0b25 513c
00000070: d4bf 953c 1599 81bc f87e 34ba 8b3b 12bc
-0.020782745 0.023849236 -0.008292611 -0.00686726 -0.017154094 0.030191556 -0.017009685 0.002901648
-0.0023514559 0.0014070193 -0.010285903 0.002381153 0.017257338 0.025113054 -0.027277743 0.004485824
-0.017424243 -0.012448752 -0.0065577514 0.0050489916 0.035133746 -0.019897766 -0.0091038905 0.003354468
-0.012155485 -0.0006417468 0.0106227 0.012765179 0.018279947 -0.015820066 -0.0006885375 -0.008925329

Const_5 f4 [32]
00000000: 58b7 d6bd 6c33 ccbd 6217 dabd a057 09be
00000010: 14ef 14be 32b5 0ebe e816 0fbe cba4 213e
00000020: 95bf 643d 074f efbd 7ee2 b93d 9304 ce3d
00000030: 7e91 c8bb 82b3 a63d efca ba3c 4a31 4fbd
00000040: b9a0 0c3a 1d60 383e 0854 073e 3d63 083c
00000050: 4dd2 56bc 0ee0 a93d 5bb6 2b3e 574b 003d
00000060: 2a11 10bd c6a5 4f3d 140c c8bc 6fcc 23be
00000070: 2a2d b9bd 1b4f c2bc dd12 3abd 802a 18be
-0.10484189 -0.099707454 -0.10648991 -0.13412333 -0.14544326 -0.13936308 -0.13973582 0.1578552
0.05584677 -0.11684995 0.09076403 0.10059466 -0.0061208596 0.08139707 0.022801844 -0.050584115
0.0005364526 0.18005414 0.13215649 0.0083244415 -0.013111663 0.08294688 0.16768782 0.03132185
-0.03517262 0.050695203 -0.024419822 -0.15995954 -0.090418175 -0.023719361 -0.045428146 -0.14859962

Const_6 f4 [32]
00000000: e6da 813f 8d91 8d3f a5d6 843f 08b3 963f
00000010: f8f7 883f a108 8e3f 8a37 7e3f bc2e 923f
00000020: 3440 a03f 6954 7b3f c08e 823f 54f4 833f
00000030: 232d 863f 4690 9f3f 946e 943f 0a80 763f
00000040: dfec 8b3f 5e2e 8a3f de24 a73f de16 a03f
00000050: fa4d 7e3f 3335 823f ab2e a63f fb68 893f
00000060: aaac 843f a1d4 783f d2d3 7e3f 885b a73f
00000070: e2fa 853f 6bbc 753f f25b a03f 0687 af3f
1.0144928 1.1060044 1.0378004 1.1773386 1.0700674 1.1096383 0.99303496 1.1420512
1.2519593 0.98175675 1.0199814 1.0308938 1.0482525 1.2465904 1.1596246 0.9628912
1.0931662 1.07954 1.3058126 1.2506979 0.9933773 1.0172485 1.2982992 1.0735162
1.0365193 0.97199446 0.9954196 1.3074808 1.0467188 0.9599063 1.252806 1.3713081

Const_7 f4 [32]
00000000: 65c0 053c f53b a13c eb16 933b 0bbf d03d
00000010: e043 5d3d 6f26 713d 6e4f 5abb 9018 7b3d
00000020: 6249 853e 6b67 b0bc a8d0 443d 41ff 873c
00000030: aa77 163d 642f 863e cb91 7b3d 3a63 46bd
00000040: 7246 463d ffee 023d 013b 903e 3604 833e
00000050: 7b90 4cbc 278d 2f3c ab58 8c3e 3285 e93c
00000060: 9083 583c e2af cdbc 790b 99bc 4c1f 913e
00000070: a1fe 043d f09c c1bc 603e 833e 3250 9d3e
0.008163546 0.01968191 0.004488816 0.101926886 0.05401981 0.058874544 -0.0033311504 0.06130272
0.2603255 -0.021533689 0.048050553 0.016601207 0.036735214 0.2620803 0.061418336 -0.048434474
0.048407026 0.031966206 0.28170016 0.2558915 -0.012485619 0.010714806 0.27411398 0.028505895
0.013214961 -0.025108282 -0.018682228 0.2834419 0.032469396 -0.023634404 0.25633526 0.30725247

MatMul f4 [32, 1536]
00000000: 21d7 bbbc 8a85 30bb a4c6 b43c 5915 34bd
00000010: 6f66 383c ffed 06bb d3bf 4d3c ac53 05bc
00000020: 8ff6 32bc d086 3e3b 2367 fa3b fab4 a83c
00000030: 9ab3 393c 7a74 80bc 543e c83b 58c4 84bb
00000040: 1801 13bd e52e 113d 90a3 203c e651 30bc
00000050: 4915 e4bc 0a61 3cbc a0cc c73c 65fd 9fbc
00000060: c719 aebc 36b6 613b 8bd6 1d3c 9ea9 52bd
00000070: 1089 0a3c 1b8e bd3b 7d67 dd3b b16a 68bb
00000080: 4469 06bc 9a9e f9bc 86f7 813c 85d2 9b3b
00000090: 1ee5 093c 5dfc 8abc 9ef5 8c3c ed1e c139
000000a0: e3ac 23bc 4816 983c 65c5 a03c 36a2 a6bb
000000b0: e57d 673c 39df 61ba ca4a 153a 39c8 c63c
000000c0: fc2e c73b edef c53c 1725 ac3b 5804 cf3c
000000d0: c3d1 323c 08de a13c 16f3 bb3c ce18 aebc
000000e0: 034d 223c b062 9f3b 82e7 f63a e4cc 383c
000000f0: 2d54 a13b 3b53 9cbc 8781 823c 8b1c c8bc
00000100: 6123 8e3c 90fe 443c 2205 383c 4f32 553c
00000110: ec6c 943c 8d1e 92bc ceae a63c c36b 913c
00000120: a0c1 29bc 24a9 7abc 46ba 40bc 0bb4 d73c
00000130: d397 ffbb 0a82 943c 67a9 dcb9 a8f9 8fbc
00000140: 628d 8d3c 06fb 9abb ddff f53c bbd5 3fbc
00000150: eeb3 c73c 6338 1ebd f115 b13c a5b0 f0bc
00000160: d342 893b 16df 843b 89db d3bc 98ae 483b
00000170: 7213 ad3c 1148 073c cb84 77bc c369 8c3c
00000180: 4c1f 82bc 1f8d 92bc 9e75 debc 0a8d 0cbd
00000190: e7b1 f73c 62ff 833c da2f 0b3c 1edb 80bb
000001a0: e5fb c6bc cc75 e8bb 020f a3bc 0ee5 113c
000001b0: 8b53 b9bb b33d 2e3c 1aa1 ed3b b014 e33c
000001c0: ea57 a03b 7b3c a9bc 4b22 95bc c313 273c
000001d0: 8f6f a2bc 787a 8a3c 8657 04bb a98c eb3c
000001e0: f822 a33b a1e9 043b 7ed1 bf3c 08a2 0bbd
000001f0: 5610 ce3c 5a6a c53c 27ac b23c 524f 4ebc
00000200: ca27 88bb 330e 523c d95d 453c 5c38 9abc
00000210: ead5 e03a 4fa4 263c dab1 823c 4725 0ebc
00000220: c4ad b13c a436 843c f921 babb e540 3aba
00000230: 56b1 68bc 8804 4d3c d1e8 79bc dc6d 903c
00000240: 6bda 833b 114e 953c fa92 da3c f879 4ebc
00000250: e585 923c 25c2 863b e5d0 1cbb 9141 16bb
00000260: d45f 283c 0d2f 10bb f81c 83bb 700d abba
00000270: 40c1 d73a ca35 debb dea4 893c 63e6 14ba
00000280: b455 5f3c 1724 d43c 74c4 1f3d 4350 dfbc
00000290: ad79 a3bc 9814 bf3b 99ef ddbc c34b 76bc
000002a0: 02d9 ef3c 6305 23bc 24f8 c6bb a40b 873c
000002b0: fd66 b33a 0c71 253c 07e6 49bc 9c13 eabb
000002c0: eb1e 493b 4349 0d3b 2571 813c 42c2 66bc
000002d0: 2534 9c3c ddf8 8abc 55a6 0f3c b52c 8cbc
000002e0: 120e 1cbc 80a0 04bb 8f9a e23b 57ab 803c
000002f0: 2f7c 9cbb d4d2 913c 7afe 973c 7d6c d33c
00000300: c001 04bc 2c3d c93c 83d8 a2bc f319 6a3c
00000310: 87d8 34bc 9f5d 393c 0862 b5bc d219 943c
00000320: 7341 083c 841e 76bc 6d97 b5bc ca13 4cbc
00000330: d89e a7bb 9633 833c aa41 e1bc 4933 883b
00000340: 2f49 03bc b480 f9ba a350 1a3b 1e82 dd3b
00000350: d9bd 673c a222 c3bb 7767 903c 26be 1e3d
00000360: 166c aa3c c6cd b63c 7750 9f3b 24dd 853b
00000370: 3127 9abc f7fd 45bc d44b cc3c d5b5 95bc
00000380: f7ca 9ebc 7d2e 193c cf0d 96bc bc18 93bc
00000390: 34bc 8cbb b3c2 dcbb 3f46 0e3b f664 50bc
000003a0: c6b1 683c ee9e f93b ed61 82bc c37c 6ebc
000003b0: 8ede 7a3c 62c8 c03c d951 983c c9a9 d33c
000003c0: 3086 cfbc 7304 5a3c 1a19 74bc b99a 1d3c
000003d0: d78f 1abc 8fc3 ed3b c905 88bb 9cde 18bc
000003e0: a1b5 e93c 16af dcbb 69f7 41bc 4be3 6dbc
000003f0: 33f1 02bd be79 bcbb 452f 723c fc82 e53c
-0.02292973 -0.0026935064 0.022067375 -0.04396567 0.011254891 -0.0020588634 0.0125579415 -0.008137625
-0.010923042 0.0029072054 0.0076416894 0.020594109 0.011334324 -0.01568054 0.0061109457 -0.0040517263
-0.035889715 0.035445113 0.009804621 -0.010761714 -0.02784218 -0.011497745 0.024389565 -0.019530008
-0.021252526 0.0034440882 0.009633671 -0.05143129 0.00845553 0.0057847626 0.0067567215 -0.0035463984
-0.008203808 -0.030471135 0.015865099 0.0047553205 0.008416442 -0.01696604 0.017206963 0.0003683487
-0.00998995 0.018565312 0.019625375 -0.005085255 0.014129137 -0.00086163316 0.00056950434 0.024265395
0.006078599 0.024162257 0.005253445 0.025270626 0.010914269 0.019759193 0.02294306 -0.021252062
0.009906056 0.0048640594 0.0018837305 0.0112793185 0.0049233646 -0.019082656 0.015930904 -0.024427673
0.017350854 0.012023583 0.0112316925 0.013012483 0.018118344 -0.017836833 0.020347025 0.01775158
-0.010361105 -0.015299115 -0.011763161 0.026330968 -0.0078000813 0.018128414 -0.00042087885 -0.0175751
0.01727933 -0.0047296314 0.030029232 -0.011708672 0.02437779 -0.038627993 0.021616908 -0.029381106
0.0041888743 0.004054914 -0.025861518 0.0030621644 0.021127436 0.008256928 -0.015107344 0.017140275
-0.015884064 -0.017889557 -0.027155694 -0.034314193 0.030236198 0.016112987 0.008495295 -0.003932371
-0.024290035 -0.0070941206 -0.019904617 0.008904709 -0.005655711 0.010634827 0.007251871 0.027719826
0.0048932927 -0.020658722 -0.018204829 0.010197583 -0.019828586 0.0169041 -0.002019377 0.028753595
0.004978534 0.0020280855 0.023415323 -0.034090072 0.025154274 0.024098564 0.021810604 -0.012592154
-0.004155134 0.012820768 0.012046301 -0.018825702 0.0017153595 0.01017101 0.015953947 -0.00867588
0.021689303 0.016139336 -0.0056803194 -0.0007105007 -0.014202436 0.012513287 -0.015253262 0.01763051
0.00402384 0.018225702 0.026681412 -0.012602322 0.017886112 0.0041124993 -0.0023928222 -0.0022927264
0.010276753 -0.00220007 -0.004001256 -0.0013050269 0.0016460791 -0.0067813145 0.016802248 -0.0005680082
0.013631273 0.025896115 0.03900571 -0.027259951 -0.01995548 0.0058313124 -0.027091788 -0.015032711
0.029278282 -0.009950015 -0.006072061 0.016485043 0.0013687309 0.010097753 -0.012322909 -0.007143451
0.0030688595 0.002155856 0.015801022 -0.014084401 0.019067833 -0.01696437 0.008767684 -0.017111162
-0.009524839 -0.0020237267 0.0069153975 0.015706701 -0.004775546 0.017800726 0.018553961 0.025808567
-0.008057058 0.024565302 -0.019878631 0.014288413 -0.011037952 0.011313825 -0.022141472 0.018078718
0.008316386 -0.015021924 -0.022166932 -0.01245589 -0.005115371 0.016015809 -0.027497131 0.0041565043
-0.008013054 -0.0019035549 0.0023546598 0.006759896 0.014144384 -0.0059550563 0.01762746 0.03875556
0.020803493 0.022314917 0.004861887 0.0040852 -0.018817516 -0.012084476 0.024938501 -0.01827518
-0.01938389 0.009349463 -0.018317131 -0.01795613 -0.0042948965 -0.006737077 0.002170935 -0.012719383
0.014202541 0.007617823 -0.015915835 -0.014556113 0.01531185 0.02353305 0.018593716 0.025837796
-0.02533254 0.013306725 -0.014898563 0.009619408 -0.009433708 0.0072559784 -0.0041510803 -0.009330418
0.02852899 -0.006734739 -0.011838772 -0.014519523 -0.031968307 -0.0057518175 0.014781778 0.02801656

MatMul_1 f4 [32, 32]
00000000: 7f01 a23d b524 dc3c 1b2c 953c a56a 9f3c
00000010: b89c 1fbe 9479 023e 81e3 b1bd da8a 8e3d
00000020: 4505 cd3d 9b05 b43d fa2c d3bd a325 b6bd
00000030: 0992 01be 514e 983c 73c6 db3c d32e debc
00000040: 785e f5bd 0109 2dbe 418d 133e e2fb 25bd
00000050: 76cf e93c a0c5 6dbd 1da1 95bc e3dd 113e
00000060: c67e a03d eefb a23d 2643 a9bd 7ef7 6cbd
00000070: 7ff7 48bd 72a1 bb3c decf 613d 72a8 0a3e
00000080: f54d babc bde5 b4bd 0784 4b3d ca8f e8bd
00000090: 20a5 afbb 02d3 613d cd60 f7bd 1f41 23bc
000000a0: 56aa e93d 2918 7a3d 01d9 1a3c 8bb3 0dbe
000000b0: 18e6 7abd 0eab 3c3e 763c dfbd da06 b3bc
000000c0: f9ba a1bd 7725 c2bd 5ca3 14be 99c7 13bc
000000d0: 3652 993c e6e8 8fbc 0db7 143e 58a1 f53d
000000e0: 6b26 9abd 8e5e 35be b7f6 0c3d 769d 363e
000000f0: f863 113e e57d f1bd fb2a 723d fedb e63d
00000100: e93f febd 9da0 e2bd 6139 69bc a01d 9dbd
00000110: 1f4b 01be 2500 543e 578d bbbc b256 113e
00000120: 7a0d edbc 13d7 523e 29e8 963d a482 a7bc
00000130: 22d5 d4bd ae72 8abd 57da 9a3d 6f57 e93d
00000140: ad03 413e fee1 2b3e abee c3bd 35a2 063c
00000150: 4afa 343e 54f9 733e cd0e 29bd 36e5 5cbd
00000160: def8 eb3c 3448 2d3d d405 be3d 24e2 11bd
00000170: ddd1 9b3d d3e3 1ebd 717c 3cbd f725 dfbd
00000180: 911b f6bd ae4c e0bd e18e 8fbd 7e31 32bd
00000190: 3314 09bd 4077 703e f10f babd 8780 223e
000001a0: 2001 b53d 0e76 423e 8fbd 4c3d 6d69 25be
000001b0: d6c3 1c3e 5db1 a83d ee83 203d 738f 4c3d
000001c0: 443f bcbd 63be 8abd e1f4 34be aa4a 96bd
000001d0: 2e38 e53c 1fb0 e63d 1d0d 9e3d e6dd 453d
000001e0: 91cf 523c b00b 0abe 5698 013e bfaf 2b3e
000001f0: 642a 0fbd 647c 653c a1d6 1b3d 17f2 193e
00000200: 9d15 f6bd 99e3 acbb c4ec 8b3d 0f13 c5bd
00000210: 7eb7 223e 4bc5 363e f55f 6b3d 0048 86bc
00000220: 85b8 243e 8dc6 7b3d 8bfe f2bd accc 21be
00000230: bd02 bebc 381c 6fbd ba9e 1cbe 0661 f0bd
00000240: 9710 88bd 1732 3f3e b40f 253e 6bda 6e3e
00000250: 4c46 543e 3229 123e eddd 8d3a 0753 8f3c
00000260: ba7c 243e 9cc6 debd e232 223e e778 a23d
00000270: 3054 41bd a629 563d 4283 253d 4859 1a3e
00000280: a7c8 9bbd 204e a03c 4e6a c7bd d506 af3c
00000290: e9fa e23d 1399 0abd 75e8 923d 6e1f f0bd
000002a0: be83 09bd 9511 65bb 6d14 a6bd 4875 cdbc
000002b0: f0fa b63d 291f df3b 90c1 1ebd d554 e2bd
000002c0: 0134 213c 1c6d 27bd f4e3 643d 3cf1 5abd
000002d0: 133e bc3d 9891 fa3d 1750 03be 926c 283d
000002e0: 8d0d 13bc ef19 fe3d 76e3 0f3d 0a13 c4bd
000002f0: 5612 1e3e c6c0 81bd 8dee 223e 3499 053e
00000300: 259b 333d 8899 e3bd 6060 e63d 8ddd 143d
00000310: 2c6a 0c3e 709c 1a3e 6d9e cf3d 5e2c 203e
00000320: 9ed4 843d 4147 f03a b5d4 803d 9d6e 81bd
00000330: 6338 f93d 582d 43bb aa37 243e 44cd d33d
00000340: 2eba e43c 62e9 e63d 6f57 fcbd 1485 48be
00000350: c223 d73b 6c07 f8bb 54fb ee3c 9b59 e3bd
00000360: aef5 833d 75fb c1bc 05de 42bc 1168 693d
00000370: 8ec6 103e 9191 183d 345c b33b e0f6 67bb
00000380: 723a b43d ac93 cdbc cea8 2d3e 8315 a4ba
00000390: 94c9 7dbd f0a2 2d3e 5f51 2bbe dcc6 ec3d
000003a0: 8564 003e ba18 2d3d 3c71 5dbd b345 03be
000003b0: 8c6b 443e 58b0 283e 067d e23c a612 2f3d
000003c0: 4d59 adbd af7e abbb ca6c 3cbe d11d cbbb
000003d0: 6127 1f3e 02a0 6ebb 3133 1a3b cb52 04bd
000003e0: f654 56bd 5a82 edbd 40c9 0dbe 9647 ba3d
000003f0: 7a79 7b3c 48ec d13c e975 d0bd bcb0 a9bd
0.079104416 0.026872972 0.018209508 0.019460032 -0.15587127 0.12741691 -0.08685971 0.069600776
0.10010771 0.08790132 -0.10311313 -0.088938974 -0.12653364 0.018592032 0.026828026 -0.027121937
-0.11980909 -0.16897966 0.14409353 -0.040523417 0.028541308 -0.058049798 -0.018265301 0.142448
0.0783668 0.07958208 -0.08264761 -0.057853214 -0.049064156 0.022904132 0.05512988 0.1354082
-0.022742251 -0.088328816 0.049686458 -0.113555506 -0.0053602606 0.055132873 -0.1207901 -0.009964257
0.11409442 0.061058197 0.009451152 -0.13838021 -0.06125459 0.18424627 -0.10900204 -0.021853853
-0.0789699 -0.09479802 -0.14515442 -0.009019756 0.018715959 -0.01756711 0.14522953 0.119936645
-0.07526859 -0.17711851 0.034414973 0.17833504 0.14198291 -0.117915906 0.05912302 0.11272429
-0.12414534 -0.11065791 -0.014234872 -0.07671666 -0.12626313 0.2070318 -0.022894545 0.14193228
-0.02893709 0.20589857 0.073685 -0.020448036 -0.10392214 -0.06760155 0.07561176 0.1139363
0.18849058 0.16785428 -0.09567007 0.008217384 0.17673603 0.2382558 -0.04127388 -0.05392953
0.028805193 0.042305186 0.092784554 -0.035616055 0.076083876 -0.03879149 -0.046017114 -0.10895913
-0.120169766 -0.109521255 -0.07009674 -0.04350423 -0.03346653 0.2348299 -0.09085072 0.15869342
0.08838105 0.18990347 0.049985465 -0.16153498 0.1530908 0.08236954 0.039188318 0.04994149
-0.091917545 -0.06774595 -0.17671539 -0.0733846 0.02798089 0.11264061 0.07717345 0.048307322
0.0128668705 -0.13481021 0.12655768 0.1676626 -0.034952536 0.014006708 0.038046483 0.15033756
-0.12015841 -0.005276155 0.06832269 -0.09622776 0.15890309 0.17848699 0.05746456 -0.016391754
0.16086014 0.06146865 -0.118649565 -0.15800732 -0.023194665 -0.05837652 -0.15294924 -0.11737256
-0.06643789 0.18671452 0.16119272 0.23325507 0.20729941 0.14273527 0.0010823585 0.017495645
0.16063204 -0.108777255 0.15839723 0.079332165 -0.047199428 0.052285813 0.04040838 0.1507312
-0.07606631 0.019568503 -0.09737073 0.021365562 0.110830136 -0.03383739 0.07173244 -0.11724745
-0.033572905 -0.0034953107 -0.08109365 -0.025080338 0.08934581 0.0068091345 -0.038758814 -0.11051337
0.009839059 -0.04087554 0.055881456 -0.053452715 0.09191527 0.12234801 -0.1282352 0.041119166
-0.008975399 0.1240729 0.035129033 -0.09573944 0.15436682 -0.06335597 0.15911312 0.13046724
0.04384913 -0.11113268 0.11248851 0.0363441 0.13712376 0.15098739 0.10137639 0.15641925
0.06485866 0.0018331782 0.06290571 -0.06319926 0.12168958 -0.0029781666 0.16036859 0.10341886
0.027920809 0.11274983 -0.12321364 -0.19582015 0.006565542 -0.007569244 0.029172577 -0.11101075
0.06443344 -0.023679474 -0.011893754 0.05698401 0.14138243 0.037248198 0.005473638 -0.0035394952
0.0880021 -0.02509483 0.16958925 -0.0012518618 -0.061959818 0.16956687 -0.1673026 0.11561367
0.12538345 0.04225991 -0.054063067 -0.12819557 0.19181651 0.1647352 0.027647506 0.042742394
-0.084642984 -0.0052336077 -0.18400875 -0.0061986228 0.15542366 -0.003641129 0.0023529048 -0.03230552
-0.05232712 -0.11597128 -0.13846302 0.09095685 0.0153487865 0.025625363 -0.101787396 -0.082856625

MatMul_2 f4 [1, 32]
00000000: a07a c73d 4b15 713e a68c 2e3e 1499 363e
00000010: 458a 623e aec8 223e 5e86 56bb 87e8 813e
00000020: a394 b7be b5c8 ad3d 43ae e8bd e3f8 443e
00000030: daa7 373e 351b b8be f4ee 8a3e e393 0e3d
00000040: 5dd0 993d cb2e 663e 0328 babe 9f76 c5be
00000050: 2b85 13bc 80d5 e83c fbbc bebe 6978 c93d
00000060: 176a 243e c384 7ebd f2c7 173d 3fd0 b3be
00000070: 9475 383e b739 c2bc 841c cdbe 9b51 bcbe
0.09740186 0.23543279 0.1704584 0.17831832 0.22123058 0.15896866 -0.0032733898 0.25372717
-0.35855588 0.084855475 -0.11361363 0.19235568 0.17935124 -0.35958257 0.27135432 0.034809005
0.07510445 0.22478788 -0.36358652 -0.38567063 -0.009003918 0.028422117 -0.37253556 0.098374195
0.16056095 -0.06213833 0.037055917 -0.35119817 0.18013602 -0.023709161 -0.40060818 -0.3678101
